rnn.pth (torch, 107411 bytes, 4 tensors)

i2h.weight f4 [128, 180]
000000 a6 ff 54 be ee 54 ee bc 53 0c 74 39 36 2e 06 3e
       -0.20800647 -0.029093232 0.00023274244 0.13103566
000010 8d 0e 10 3d 37 90 c9 3d 86 7b 9d bb 97 07 79 3c
       0.035170127 0.0984196 -0.004805985 0.0151995635
000020 0b 5f 8c be aa fc e8 3c f1 b9 94 3e 2d 4c 53 3b
       -0.27416262 0.028440792 0.29048112 0.003224145
000030 8f 0b 02 be 02 b3 3d be 49 19 16 3e 8f 3f 5c be
       -0.12699722 -0.18525317 0.14658083 -0.2150862
000040 64 36 fb 3c ad 91 86 be e0 7b b9 be a5 8c 5b 3d
       0.030665584 -0.26283017 -0.36227322 0.053600926
000050 04 a9 f0 bc 72 dc 31 be 77 89 c1 3e 62 25 43 3c
       -0.029377468 -0.1736925 0.3780019 0.011910768
000060 62 5e 1c 3e b9 74 ee 3d 4d f1 c6 bd 2e 4d f0 3c
       0.15270379 0.11643357 -0.09713993 0.029333677
000070 16 bd e7 3c 2b 39 92 bd 66 65 88 bd a5 2e f6 3d
       0.028288405 -0.0713981 -0.06659965 0.120206155
000080 d8 b9 c3 3c 09 75 25 3e 78 7d 63 bd b8 56 55 3e
       0.023892328 0.16157927 -0.05553958 0.20833862
000090 12 a7 53 3e c1 dc 9a 3d db 71 46 3d a2 11 12 bc
       0.20669201 0.07561637 0.048448425 -0.008915337
0000a0 88 8a b4 be 66 6e f5 bb 3f 16 37 3c dc df d8 bc
       -0.3526194 -0.007489967 0.0111747375 -0.026473932
0000b0 f5 b5 53 3e 66 2c 39 3d 1d 28 5e bd b0 1d b6 3b
       0.2067488 0.045208357 -0.054237474 0.0055577382
0000c0 e1 8f 98 3e db 26 b1 3d 3f 62 51 3e 25 f7 2d 3d
       0.2979727 0.08649989 0.20447634 0.042472024
0000d0 e7 85 1e bb f7 26 85 bc 78 1e e0 3c 01 9f b1 bd
       -0.0024188699 -0.016253931 0.027358279 -0.08672906
0000e0 2d fd 6f 3b ab 5d c8 3d cd 37 a8 bd 06 36 94 bd
       0.003661941 0.09783491 -0.08213768 -0.07236867
0000f0 62 9b af bd a6 ad 2a bc 77 24 ef 3c 5b 10 d8 bd
       -0.08574559 -0.010417378 0.029192192 -0.105499946
000100 c3 2e bb 3c 00 37 59 3c 26 14 e7 bd 61 10 87 3d
       0.022849446 0.013257742 -0.1128314 0.06594921
000110 d1 e3 c6 bd f1 ae 69 bc dd 48 d3 3c 48 2c 73 bd
       -0.09711421 -0.014262901 0.02579158 -0.0593684
000120 ca 7c 63 b9 3b c3 3a bd 59 00 92 3a 63 46 cb 3d
       -0.00021694895 -0.045596343 0.001113902 0.099255346
000130 6c 61 ef bd 33 c7 1a 3d d0 1d 63 bd b3 94 07 3b
       -0.116885036 0.037787627 -0.055448353 0.0020687997
000140 46 6e 57 3d f8 cf f2 3c cc 70 c1 3b 29 b9 63 bd
       0.0525954 0.029640183 0.005903339 -0.055596504
000150 6a 08 8e bc 58 d1 50 3d ba 7e b9 3c 84 90 d5 bb
       -0.017337997 0.050980896 0.022643436 -0.0065174717
000160 84 c8 94 bc db a8 cb bb d3 ac f7 bd 8c f6 17 3d
       -0.01816202 -0.0062151975 -0.120935105 0.03710036
000170 40 d1 0b bc 24 cf 77 bd 2c 66 54 3d d0 31 f5 3c
       -0.008533776 -0.06050028 0.05185525 0.029930979
000180 be 25 89 bb d0 be 0f bd e8 ac d6 bc d1 4c 51 bd
       -0.0041854074 -0.035094082 -0.026205495 -0.05109865
000190 99 63 b8 bc d3 34 9b 3d 79 91 c2 bd 71 fd b6 3d
       -0.02250843 0.07578435 -0.09500403 0.08935059
0001a0 1a a8 87 bd d9 a3 f5 bd 20 45 4b 3d 7e 87 73 bd
       -0.0662386 -0.11994142 0.04962647 -0.059455387
0001b0 d1 6e 84 3d c9 ba 2e bd 78 69 47 3c a8 5c 90 bb
       0.06466449 -0.0426586 0.012171142 -0.0044055767
0001c0 22 18 76 bc 3c ca af 3b 8c bc 20 3d 8c 2a a4 3d
       -0.015020402 0.0053646844 0.039242312 0.08015928
0001d0 74 e9 c3 3c b7 93 8c 3d 29 b3 a0 bc d5 fb 6d bc
       0.02391503 0.06864112 -0.01961668 -0.0145253735
0001e0 e4 8c 46 3d f1 2f 55 bc 2b a5 a7 3d 43 50 14 bc
       0.048474208 -0.013011918 0.081858 -0.009052339
0001f0 de 5b c6 3c 41 c9 32 bd df 42 8b bb 98 dc 9d bd
       0.024213728 -0.043648962 -0.004249915 -0.077080905
000200 cd 56 cf bc a5 03 be bd 91 8a ac 3b a9 06 37 3d
       -0.025309945 -0.09278039 0.005265542 0.044684086
000210 ca b3 ae bd f8 49 85 bb d3 16 80 3c bf e4 97 bd
       -0.08530386 -0.0040676557 0.015635883 -0.07416677
000220 4a 62 c2 3c 6f dc df 3d ba d3 3a 3d 14 74 85 bc
       0.023728509 0.10930716 0.045612074 -0.016290702
000230 93 94 08 3d 68 d6 18 3d ae 11 4d 3d 1b 02 3d bb
       0.033344816 0.03731385 0.05006569 -0.0028840366
000240 65 ed f3 3c 40 0a af 3c 53 e5 48 3d 7b 11 d7 bd
       0.029776284 0.021367192 0.049046826 -0.10501381
000250 35 60 58 bd 67 1c 8c 3d b8 02 44 3d e3 e9 51 bc
       -0.052826125 0.06841355 0.047854155 -0.012812111
000260 23 1b 0d 3d 25 2d 40 bd 6f 8e e7 3d c1 95 5e 3d
       0.034449708 -0.046918053 0.11306464 0.054342035
000270 2f d2 84 bd e3 52 2c 3b 03 6d 90 3c 0d dc 30 3d
       -0.06485402 0.0026294522 0.017630106 0.043178607
000280 a3 40 f4 bc ba 63 26 bc 15 bc 65 bd b8 e1 0e 3d
       -0.029815977 -0.010155613 -0.056087572 0.03488323
000290 d5 d5 26 be c2 ac dd 3c a3 4c f6 bd fe f6 c8 3d
       -0.16292508 0.027059916 -0.12026336 0.09812735
0002a0 4f fb 27 3e c3 f7 89 bd 68 56 b5 3d 90 16 6f bc
       0.1640446 -0.0673671 0.08854371 -0.014592782
0002b0 c9 eb a5 3b ff f2 04 be 5e fb 3c bd c3 f2 d5 3d
       0.005063508 -0.1298332 -0.04613816 0.10446694
0002c0 dd 2d 89 bd 3d 3b d6 bc 82 0b 98 bd aa bb a6 bd
       -0.06698201 -0.026151294 -0.0742407 -0.08141263
0002d0 fc e6 50 3e 41 85 91 bc d5 e9 79 be 4a c7 1e be
       0.20400614 -0.017763736 -0.24405606 -0.1550571
0002e0 b1 ab 8d 3c a3 91 2a be 82 2e 4a be db 57 25 be
       0.017293783 -0.16657118 -0.19744304 -0.16146795
0002f0 f5 37 67 3e 7f 05 29 be 06 80 1a be b0 cf 5f be
       0.2257994 -0.16506003 -0.150879 -0.2185657
000300 92 80 9c bd fb 14 10 be 5b d5 bd 3e 23 9c c2 bc
       -0.0764171 -0.14070503 0.3707684 -0.023756092
000310 da dd 8c 3d 3e 4a ed bd 65 2d 37 3e b4 54 a3 bb
       0.06878252 -0.11586426 0.1788841 -0.0049844626
000320 1f b3 13 bd 02 c7 cf bd 09 07 3e be 5f b1 29 3c
       -0.036059495 -0.101453796 -0.18557371 0.01035723
000330 1f 90 1c be ca 7b 2f be 41 33 5c 3d 5f 1f e4 bc
       -0.15289353 -0.17137066 0.053759817 -0.02784699
000340 85 22 af 3c 4f 5e be 3d f8 5f 11 3d 5c 5d a2 3d
       0.021378765 0.09295332 0.035491914 0.07927963
000350 d1 b2 0e 3e 7c 6d c6 bd 31 5b 9e 3d 57 fe 07 3e
       0.139354 -0.09688851 0.07732237 0.13280617
000360 f1 42 61 bd d0 7d 10 bd 5e f2 b1 3d 12 d8 56 bd
       -0.05499548 -0.035276234 0.08688806 -0.052452154
000370 46 cb 42 bc ae b0 26 be e0 0a bd 3d e8 94 c4 bd
       -0.0118892845 -0.16278335 0.0923059 -0.09598714
000380 fa f9 a9 3d 3c 91 55 3e 61 a5 92 bd 9c 6f 11 be
       0.08299632 0.20856184 -0.0716045 -0.14202732
000390 64 53 21 3e 32 bd 37 3e f4 ed 8f 3d 26 9b 98 3d
       0.15754467 0.17943266 0.07027808 0.07451467
0003a0 5b 9b 03 3e 24 cc db 3c 25 65 87 3d ab b4 64 3d
       0.12852232 0.02683074 0.06611089 0.05583636
0003b0 2f fd db bc 38 fb 8e bc f0 20 91 3d e7 74 55 3d
       -0.026854126 -0.017453775 0.070863605 0.05211344
0003c0 8c e9 8d 3b d2 48 f0 bc 2c 69 93 3d 0c 05 a6 bd
       0.0043308195 -0.029331598 0.07197794 -0.08106431
0003d0 15 d6 02 3d 27 ad 97 3d 3a 79 67 3d e6 8e c9 bd
       0.031942446 0.07406073 0.056512095 -0.09841709
0003e0 31 3f 8b 3c c1 3b e7 3a 2a 0c 98 bd 47 f2 81 bc
       0.016997905 0.001764171 -0.07424195 -0.015862597
0003f0 c6 b7 8e 3c 72 74 41 bd 3f dd 31 bd e3 6b a2 3b
       0.017421614 -0.04723019 -0.043423887 0.0049567088

i2h.bias f4 [128]
000000 d3 8e 3c 3d bb 7b 43 3d 48 ba 92 bc 8a 8a 88 3d
       0.046034645 0.04772542 -0.017911091 0.06667049
000010 c7 45 e7 bd 13 a4 31 bc 2d 9e 29 bd 01 d8 60 3d
       -0.11292606 -0.010842341 -0.041410614 0.054893497
000020 6d 04 16 3e a9 09 a4 bd 42 93 06 be 3d 8b f5 3d
       0.14650126 -0.08009655 -0.13142112 0.11989448
000030 c5 a1 76 3d 80 c6 2e 3d a7 85 e8 3d f7 0a ca 3d
       0.06021287 0.042669773 0.11353617 0.09865373
000040 55 5e 05 3d b0 54 3b bd 8b ce 58 bc 15 1e 94 bb
       0.032560665 -0.04573506 -0.013232837 -0.0045201876
000050 61 02 f0 3d be bb d1 3d e8 b4 ed bc f0 70 da bd
       0.11719204 0.10240887 -0.029016927 -0.10666072
000060 e2 a0 09 3d 44 4c 5e bd 78 a2 0f bd 18 d0 50 3c
       0.033600695 -0.05427195 -0.03506705 0.012744926
000070 2d 6c 8a bc 4e ff e8 bc 49 3b a0 3d c6 ac 70 bc
       -0.016897285 -0.028442051 0.07823808 -0.01468963
000080 f2 82 b5 3d f1 57 1f bd be b9 99 3d 8e fb cb bd
       0.088628665 -0.038902227 0.07506131 -0.099600896
000090 63 4f c8 3d 75 08 35 3d e9 fe da bd 40 45 59 bd
       0.09780767 0.04419752 -0.106931515 -0.053044558
0000a0 f7 ab 8f 3d dc 3d 1b 3d 4f 97 de bd f6 11 d5 bb
       0.070152216 0.03790079 -0.108687036 -0.0065023853
0000b0 58 f3 ce bb d6 0e 21 bd 2b 3f 81 bd 88 ef 97 bd
       -0.00631563 -0.03932079 -0.063108765 -0.07418734
0000c0 ec d9 21 3e 92 82 90 3d 87 6f 37 3d 7b e5 51 bd
       0.15805787 0.07056154 0.044784095 -0.05124424
0000d0 f5 6c 46 3b 49 8f ca 3d 31 e2 e3 3c 06 d8 3f be
       0.0030277346 0.09890611 0.027817817 -0.1873475
0000e0 a8 61 aa bd 60 9e 14 3e 32 ed 8e 3d ae 9d 24 3d
       -0.08319408 0.1451354 0.06978835 0.040189438
0000f0 1c b7 17 be 2a bb 46 3d 21 82 82 3c 6d ca 11 bd
       -0.14815944 0.048518337 0.01593119 -0.03559344
000100 77 77 29 3d 03 69 33 3d 97 c8 83 3d 91 6f b5 3d
       0.041373696 0.04380132 0.06434744 0.0885917
000110 6c 70 3f bd 08 2a 9d 3c 0f b6 31 3d fb d7 81 bd
       -0.046738073 0.019185081 0.043386515 -0.06340023
000120 0f f8 31 3c ab 46 59 3d 80 33 ee 3d b5 32 bf bd
       0.010862364 0.05304591 0.116309166 -0.093358435
000130 8e 6f 35 bd ec 66 b7 bc a0 65 ff 3a f9 50 79 3d
       -0.04429584 -0.022387944 0.0019485243 0.060868237
000140 ef ea 2a 3e b6 14 c4 3d d0 a4 8b 3d 21 1f 28 bd
       0.16691183 0.09574263 0.06818545 -0.04104531
000150 2d 2f 96 3a fa 8b d8 3d 79 51 f5 bc 7f 4b b1 3a
       0.0011458151 0.105735734 -0.029946076 0.0013526528
000160 38 6f 41 3d 5d 6f 1c 3c 99 18 5f bd e3 d4 30 bd
       0.047225207 0.009548035 -0.054466818 -0.043171775
000170 98 53 6e 3d 33 42 b2 3c 3e 91 24 3d 41 f7 bf 3c
       0.05818519 0.021760082 0.040177576 0.02343333
000180 e2 f6 59 3c 13 b2 90 bc 05 89 c1 3d 44 8e 8d bc
       0.01330349 -0.017663037 0.094499625 -0.017279752
000190 00 84 12 3d 39 5b 8d 3d 81 e9 47 3d 5f cf 23 3c
       0.035770416 0.06902165 0.04880667 0.009998172
0001a0 38 ae 91 3d 5e cc 8b 3c dd e6 be 3d 64 53 e9 3d
       0.07113308 0.017065223 0.093213774 0.113928586
0001b0 b2 6a d4 3d a0 7f 97 3d e6 2e bd bd a2 66 20 bd
       0.10371913 0.073973894 -0.09237461 -0.03916038
0001c0 a2 31 ae bd a5 f5 2d 3e d8 ec 21 be 20 31 08 3c
       -0.085055605 0.16988237 -0.15813005 0.008312494
0001d0 d9 8e d9 3d 61 b3 85 3c 6f ae 2a bd fb 11 ee ba
       0.10622949 0.016320886 -0.04167026 -0.0018163318
0001e0 bb b0 38 be a4 46 bc bd 0f e6 93 bd 04 2d cd bd
       -0.18036167 -0.09193161 -0.072216146 -0.10018352
0001f0 6d 97 5e be a6 67 ae 3d b7 db 71 3d e7 45 83 bd
       -0.21737452 0.08515863 0.059047427 -0.06409817

i2o.weight f4 [18, 180]
000000 55 03 c5 3f f5 3f c2 bd 91 25 9d bd b5 df 90 be
       1.5391642 -0.09484855 -0.07673181 -0.28295675
000010 4a f7 2e be 80 b9 1f be 5d 50 bf be b5 27 dd be
       -0.17086521 -0.15598106 -0.37366 -0.43194357
000020 e2 8b 2a bf d3 89 1a bd d4 98 00 bf 22 f0 8c be
       -0.66619694 -0.037729096 -0.502332 -0.27526957
000030 84 29 97 bc 8a 00 97 bf 23 b8 20 40 27 16 55 bd
       -0.018452413 -1.179704 2.5112388 -0.05202308
000040 48 6d 20 3d d8 77 c4 be 32 6d e8 3f 77 3a fc be
       0.03916672 -0.38372684 1.8158324 -0.49263355
000050 a2 d6 27 be 16 0d 87 be f6 2a 08 bd 45 38 c3 bd
       -0.1639047 -0.2637717 -0.033244096 -0.09532217
000060 7c 03 10 bf a0 a1 15 3e a5 c5 c3 3c 65 c6 54 bd
       -0.56255317 0.14612436 0.023897955 -0.051947016
000070 1e c4 c3 bc 0e e8 97 bb 0c a0 55 bd 6e e6 b8 bc
       -0.023897227 -0.0046358174 -0.052154586 -0.022570815
000080 c2 39 ad bc 58 bc 80 bc 1e 9b ad 3c 73 83 7b bd
       -0.021145705 -0.01571481 0.02119213 -0.061404657
000090 63 74 64 bd a4 7e 95 3c 0c 9c 89 bd d0 de 0d 3d
       -0.055775058 0.018248864 -0.06719217 0.03463632
0000a0 4f ef 64 3c 74 0d 8c 3d fd ee 12 3b b2 58 c5 bc
       0.013973071 0.068385035 0.002242028 -0.024090145
0000b0 09 3b f4 bc 2d 02 85 3d 94 4b 59 bd 66 4d 2e bd
       -0.029813306 0.064945556 -0.053050593 -0.04255428
0000c0 ff 1c 84 3d 48 27 80 bd e7 c0 34 3d 2b 8c 0b bd
       0.06450843 -0.06257492 0.04412928 -0.03406922
0000d0 08 48 a7 3e f9 df 6c be 39 ba c8 bd b5 79 a9 bd
       0.32672143 -0.23132314 -0.09801144 -0.08275167
0000e0 20 b0 db 3d c4 22 38 be 79 e3 bc 3d 13 98 59 bd
       0.107269526 -0.17982012 0.092230745 -0.053123545
0000f0 56 cc 0c bd ce d4 e5 bd 41 d5 99 3e fc 1d 96 bd
       -0.034374557 -0.1122223 0.30045512 -0.07329938
000100 7a dc 45 be 86 a7 c0 be ff 12 02 3d 85 a0 34 be
       -0.19322386 -0.3762781 0.031756397 -0.17639358
000110 60 3e 63 be 1d 00 fe bc 91 08 dc 3c 11 2a 3b be
       -0.22191763 -0.031005913 0.026859554 -0.18277766
000120 99 b5 04 be 55 ae 7a be 7b e1 c8 3d f9 b1 68 bd
       -0.12959899 -0.24480565 0.09808632 -0.056810353
000130 3a fd 95 be 6c 5d aa 3e 76 22 c7 bd 9e 01 57 3d
       -0.2929476 0.332744 -0.0972337 0.052491777
000140 ef 7f 19 3e 75 0d 89 3e fc e2 ba be 52 93 f1 3b
       0.14990209 0.2676808 -0.365013 0.0073722983
000150 8f 5c 49 be 35 f5 d9 3d 2c 81 a3 3d fa 6c 83 bd
       -0.19664215 0.10642473 0.07983622 -0.0641727
000160 2e c5 89 be 66 a8 06 3e e7 6c 83 3e 12 e9 8a bd
       -0.2690825 0.13150176 0.25669023 -0.06782736
000170 0d 52 2e 3e 56 cd bf 3d 5a bc 72 3e 0d ff b3 3b
       0.17023487 0.093653366 0.23704663 0.005493051
000180 a0 21 dc 3d 5a 19 3c 3e 50 2b 89 3e 1b 6a 88 be
       0.10748601 0.18369046 0.26790857 -0.26643452
000190 d2 0c ac bd d4 84 d3 bc f3 57 90 be 2f 3e 63 3e
       -0.08400883 -0.025820173 -0.281921 0.2219169
0001a0 13 81 9f 3d cb 87 c5 be 2c 36 e6 3d 78 31 e1 3d
       0.07788291 -0.38580164 0.11240801 0.109957635
0001b0 21 6b 3f 3d 31 33 f8 bc 32 c0 60 be 6b 3b 1e bd
       0.046733025 -0.030297847 -0.21948317 -0.038630884
0001c0 a1 72 a7 3d 05 ac 49 3d 09 7f b8 3d e3 63 b4 3e
       0.081761606 0.049236316 0.09008605 0.35232458
0001d0 27 08 3d 3e 73 35 c8 bd 22 f4 9a be 6c 66 6a 3e
       0.18460141 -0.0977582 -0.30264384 0.22890633
0001e0 f5 b3 1f 3e 4a 5e 04 bd 37 21 08 3e 8b 93 4f bd
       0.15595992 -0.032316484 0.1329392 -0.050677817
0001f0 66 31 b5 3d ff b1 12 3d 2c 75 8c 3d 5a 65 87 be
       0.08847313 0.03581428 0.06858286 -0.26444513
000200 38 03 8a 3d 5b 4d 96 be 81 90 41 be 95 48 0f 3d
       0.06738895 -0.29355893 -0.1890278 0.03498133
000210 c4 86 09 be 6c 7f fd bb 64 55 8b 3d 0f 19 1d 3e
       -0.13430315 -0.007736137 0.06803396 0.1534159
000220 ac c4 ef bd 83 46 f4 3c f5 74 f9 bb b5 85 97 be
       -0.11707434 0.029818779 -0.0076128193 -0.29594198
000230 1b a1 f5 3d 29 9c c1 bd bd 9c 43 3e 21 51 9a bd
       0.11993619 -0.09453613 0.1910276 -0.07535005
000240 d0 66 02 be df 27 44 be 5e 3e 6b 3c 6f 77 81 be
       -0.12734532 -0.19155835 0.014358131 -0.25286433
000250 9c c0 a3 be 2c a1 30 3d ab 4f 11 be f0 35 16 be
       -0.31982887 0.043122455 -0.14190547 -0.14669013
000260 3f 5d de 3c 88 cf a6 be 7d a6 54 be 14 71 77 be
       0.027144073 -0.3258021 -0.20766635 -0.2416423
000270 e4 cd 2b be 7c 46 ce 3b fa fe 8d 3d 65 c2 7e be
       -0.1677776 0.0062950235 0.069333985 -0.24878843
000280 ee 0c 92 bd 0e 32 6a be 76 04 61 3e da f3 c5 3c
       -0.071313724 -0.22870657 0.21974358 0.024164129
000290 f9 22 0e 3f 7f 4e 86 bd f8 de 59 3e 13 ac 38 be
       0.55522114 -0.06557941 0.21276462 -0.18034391
0002a0 fc 62 ba be b2 92 8d bc cd 84 3e bd be 75 dc bd
       -0.36403644 -0.017281864 -0.046513367 -0.10764645
0002b0 34 e9 cf bc 09 9c 10 3e 46 cd 09 3e 61 6c f3 3d
       -0.025379755 0.14122023 0.13457212 0.11885906
0002c0 b6 57 81 3e 23 c0 07 be bc 9d 8f bd 72 0a 25 bd
       0.2526223 -0.13256888 -0.07012507 -0.040293165
0002d0 3f 20 42 be 00 3a 79 bc b6 f5 b4 3e c4 0c 5b be
       -0.18957613 -0.015211582 0.35343713 -0.21391588
0002e0 f7 60 06 bf bd 36 06 bd de dc 18 3f e3 c6 69 3f
       -0.52491707 -0.032767046 0.59712017 0.913191
0002f0 6f 85 d9 3d c5 32 81 bd dd ba fe be ba 54 b5 be
       0.106211536 -0.06308512 -0.4975194 -0.35416204
000300 87 26 05 3f be d8 1d 3e 39 5a 77 3e 43 95 41 3e
       0.52011913 0.15414712 0.24155511 0.18904595
000310 8d 66 89 bb 96 b9 ff be 9a f1 0d bf b5 30 74 be
       -0.004193133 -0.49946278 -0.5544678 -0.23846705
000320 db 2b 87 3f 37 d2 b4 bc be 34 15 be 77 32 32 3d
       1.0560259 -0.022072894 -0.14570901 0.04350516
000330 22 c6 4c bd 33 4a 53 be a2 cd 8d 3c 1f 3b 3f 3c
       -0.04999364 -0.20633774 0.017309967 0.01167181
000340 79 5e 31 bd 26 b4 11 3c c4 d1 81 bd 74 1e 81 3b
       -0.043302987 0.008893048 -0.06338838 0.003940398
000350 fe ab ea 3c f2 a2 5a bd b4 f2 59 3d ce 03 10 3c
       0.028646465 -0.053378053 0.053209975 0.00878997
000360 56 c5 6a 3b d3 65 55 bb d4 9c 6c 3d 6b 21 17 3c
       0.0035823188 -0.0032561913 0.05776675 0.009224276
000370 bc 2b 94 bd b4 8d 19 bd 5a ac 26 3c 5d 85 93 bd
       -0.07234904 -0.037488654 0.010172928 -0.072031714
000380 01 3d 25 bd db d4 4a 3d cf 73 77 bc 23 cf 42 3c
       -0.04034138 0.0495194 -0.0151032945 0.011890206
000390 0b fe 81 3d a1 96 eb b8 17 ee 87 3d 62 54 8d 3d
       0.06347283 -0.0001123373 0.06637209 0.0690086
0003a0 39 96 58 3c 15 65 c7 3d 90 2f ee 3c 9d e9 72 be
       0.01321941 0.09736077 0.029075414 -0.23721929
0003b0 f9 cb a3 be ec 0b 64 be ec 50 4f bd f0 9e c0 3e
       -0.31991556 -0.22270173 -0.050614282 0.3762126
0003c0 22 d1 80 3e a7 d5 29 be 06 5e 9c be 31 0b 22 3f
       0.25159556 -0.16585408 -0.30540484 0.63298327
0003d0 a0 b6 e1 3e cd 42 46 3f b7 b6 93 3e e8 c0 17 3e
       0.44084644 0.7744568 0.28850338 0.14819682
0003e0 ba 04 05 3e 42 36 af be 19 b3 38 bf 78 d1 a7 be
       0.12990084 -0.34221083 -0.7214828 -0.32777
0003f0 71 09 fd bc 61 73 90 bd 86 e5 b5 3e 3c be 79 3d
       -0.030888291 -0.07053257 0.35526675 0.060972437

i2o.bias f4 [18]
000000 1a 5f bd be d2 f0 d6 3e ba b2 14 3f 82 ab cd 3d
       -0.3698662 0.41980606 0.58085215 0.10042478
000010 3c e8 ca 3e e5 d2 1f 3e fc b0 56 3e d2 9c 90 bc
       0.39630306 0.15607794 0.20965952 -0.017652903
000020 73 9f e5 3e 97 77 09 be c2 17 84 bf 7f 23 11 bd
       0.44848213 -0.13424526 -1.031975 -0.035434242
000030 c8 52 e9 be 69 7a 6e 3d 51 9c 42 be 5b ae be be
       -0.4557097 0.05822221 -0.19004942 -0.37242398
000040 6b 04 9b 3d a8 89 2a bd
       0.07569202 -0.041635185
